module @jit__unnamed_function attributes {mhlo.num_partitions = 1 : i32, mhlo.num_replicas = 1 : i32} {
  func.func public @main(%arg0: tensor<3x5xf32>) -> (tensor<3x2xf32> {jax.result_info = "result"}) {
    %cst = stablehlo.constant dense<[[… > : tensor<5x10xf32>
    %cst_0 = stablehlo.constant dense<0.000000e+00> : tensor<10xf32>
    %cst_1 = stablehlo.constant dense<[[… > : tensor<10x2xf32>
    %cst_2 = stablehlo.constant dense<0.000000e+00> : tensor<2xf32>
    %0 = stablehlo.dot_general %arg0, %cst, contracting_dims = [1] x [0], precision = [DEFAULT, DEFAULT] : (tensor<3x5xf32>, tensor<5x10xf32>) -> tensor<3x10xf32>
    %1 = stablehlo.reshape %cst_0 : (tensor<10xf32>) -> tensor<1x10xf32>
    %2 = stablehlo.broadcast_in_dim %1, dims = [0, 1] : (tensor<1x10xf32>) -> tensor<3x10xf32>
    %3 = stablehlo.add %0, %2 : tensor<3x10xf32>
    %4 = stablehlo.dot_general %3, %cst_1, contracting_dims = [1] x [0], precision = [DEFAULT, DEFAULT] : (tensor<3x10xf32>, tensor<10x2xf32>) -> tensor<3x2xf32>
    %5 = stablehlo.reshape %cst_2 : (tensor<2xf32>) -> tensor<1x2xf32>
    %6 = stablehlo.broadcast_in_dim %5, dims = [0, 1] : (tensor<1x2xf32>) -> tensor<3x2xf32>
    %7 = stablehlo.add %4, %6 : tensor<3x2xf32>
    %8 = call @relu(%7) : (tensor<3x2xf32>) -> tensor<3x2xf32>
    return %8 : tensor<3x2xf32>
  }
  func.func private @relu(%arg0: tensor<3x2xf32>) -> tensor<3x2xf32> {
    %cst = stablehlo.constant dense<0.000000e+00> : tensor<f32>
    %0 = stablehlo.broadcast_in_dim %cst, dims = [] : (tensor<f32>) -> tensor<3x2xf32>
    %1 = stablehlo.maximum %arg0, %0 : tensor<3x2xf32>
    return %1 : tensor<3x2xf32>
  }
}
