module {
  memref.global "private" constant @__constant_10xf32 : memref<10xf32> = dense<[0.324402809, 0.310801536, 0.145091951, -0.00159802765, 0.00602207193, -0.407307744, -7.466710e-02, 0.436078906, 0.0632922873, 0.0619130022]> {alignment = 64 : i64}
  memref.global "private" constant @__constant_10x5xf32 : memref<10x5xf32> = dense<[[… > {alignment = 64 : i64}
  memref.global "private" constant @__constant_2x10xf32 : memref<2x10xf32> = dense<[[… > {alignment = 64 : i64}
  memref.global "private" constant @__constant_2xf32 : memref<2xf32> = dense<[-0.112247445, 0.126465693]> {alignment = 64 : i64}
  func.func @main(%arg0: memref<3x5xf32>, %arg1: memref<3x2xf32>) {
    %cst = arith.constant 0.000000e+00 : f32
    %0 = memref.get_global @__constant_2xf32 : memref<2xf32>
    %1 = memref.get_global @__constant_2x10xf32 : memref<2x10xf32>
    %2 = memref.get_global @__constant_10x5xf32 : memref<10x5xf32>
    %3 = memref.get_global @__constant_10xf32 : memref<10xf32>
    %alloc = memref.alloc() {alignment = 64 : i64} : memref<5x10xf32>
    affine.for %arg2 = 0 to 5 {
      affine.for %arg3 = 0 to 10 {
        %4 = affine.load %2[%arg3, %arg2] : memref<10x5xf32>
        affine.store %4, %alloc[%arg2, %arg3] : memref<5x10xf32>
      }
    }
    %alloc_0 = memref.alloc() {alignment = 64 : i64} : memref<3x10xf32>
    affine.for %arg2 = 0 to 3 {
      affine.for %arg3 = 0 to 10 {
        affine.store %cst, %alloc_0[%arg2, %arg3] : memref<3x10xf32>
      }
    }
    affine.for %arg2 = 0 to 3 {
      affine.for %arg3 = 0 to 10 {
        affine.for %arg4 = 0 to 5 {
          %4 = affine.load %arg0[%arg2, %arg4] : memref<3x5xf32>
          %5 = affine.load %alloc[%arg4, %arg3] : memref<5x10xf32>
          %6 = affine.load %alloc_0[%arg2, %arg3] : memref<3x10xf32>
          %7 = arith.mulf %4, %5 : f32
          %8 = arith.addf %6, %7 : f32
          affine.store %8, %alloc_0[%arg2, %arg3] : memref<3x10xf32>
        }
      }
    }
    affine.for %arg2 = 0 to 3 {
      affine.for %arg3 = 0 to 10 {
        %4 = affine.load %alloc_0[%arg2, %arg3] : memref<3x10xf32>
        %5 = affine.load %3[%arg3] : memref<10xf32>
        %6 = arith.addf %4, %5 : f32
        affine.store %6, %alloc_0[%arg2, %arg3] : memref<3x10xf32>
      }
    }
    %alloc_1 = memref.alloc() {alignment = 64 : i64} : memref<10x2xf32>
    affine.for %arg2 = 0 to 10 {
      affine.for %arg3 = 0 to 2 {
        %4 = affine.load %1[%arg3, %arg2] : memref<2x10xf32>
        affine.store %4, %alloc_1[%arg2, %arg3] : memref<10x2xf32>
      }
    }
    affine.for %arg2 = 0 to 3 {
      affine.for %arg3 = 0 to 2 {
        affine.store %cst, %arg1[%arg2, %arg3] : memref<3x2xf32>
      }
    }
    affine.for %arg2 = 0 to 3 {
      affine.for %arg3 = 0 to 2 {
        affine.for %arg4 = 0 to 10 {
          %4 = affine.load %alloc_0[%arg2, %arg4] : memref<3x10xf32>
          %5 = affine.load %alloc_1[%arg4, %arg3] : memref<10x2xf32>
          %6 = affine.load %arg1[%arg2, %arg3] : memref<3x2xf32>
          %7 = arith.mulf %4, %5 : f32
          %8 = arith.addf %6, %7 : f32
          affine.store %8, %arg1[%arg2, %arg3] : memref<3x2xf32>
        }
      }
    }
    affine.for %arg2 = 0 to 3 {
      affine.for %arg3 = 0 to 2 {
        %4 = affine.load %arg1[%arg2, %arg3] : memref<3x2xf32>
        %5 = affine.load %0[%arg3] : memref<2xf32>
        %6 = arith.addf %4, %5 : f32
        affine.store %6, %arg1[%arg2, %arg3] : memref<3x2xf32>
      }
    }
    affine.for %arg2 = 0 to 3 {
      affine.for %arg3 = 0 to 2 {
        %4 = affine.load %arg1[%arg2, %arg3] : memref<3x2xf32>
        %5 = arith.cmpf ugt, %4, %cst : f32
        %6 = arith.select %5, %4, %cst : f32
        affine.store %6, %arg1[%arg2, %arg3] : memref<3x2xf32>
      }
    }
    return
  }
}

