#map = affine_map<(d0, d1) -> (d0, d1)>
#map1 = affine_map<(d0, d1) -> (d1)>
module {
  func.func @main(%arg0: tensor<3x5xf32>) -> tensor<3x2xf32> {
    %cst = arith.constant 0.000000e+00 : f32
    %cst_0 = arith.constant dense_resource<torch_tensor_2_torch.float32> : tensor<2xf32>
    %cst_1 = arith.constant dense_resource<torch_tensor_2_10_torch.float32> : tensor<2x10xf32>
    %cst_2 = arith.constant dense_resource<torch_tensor_10_5_torch.float32> : tensor<10x5xf32>
    %cst_3 = arith.constant dense_resource<torch_tensor_10_torch.float32> : tensor<10xf32>
    %0 = tensor.empty() : tensor<5x10xf32>
    %transposed = linalg.transpose ins(%cst_2 : tensor<10x5xf32>) outs(%0 : tensor<5x10xf32>) permutation = [1, 0] 
    %1 = tensor.empty() : tensor<3x10xf32>
    %2 = linalg.fill ins(%cst : f32) outs(%1 : tensor<3x10xf32>) -> tensor<3x10xf32>
    %3 = linalg.matmul ins(%arg0, %transposed : tensor<3x5xf32>, tensor<5x10xf32>) outs(%2 : tensor<3x10xf32>) -> tensor<3x10xf32>
    %4 = linalg.generic {indexing_maps = [#map, #map1, #map], iterator_types = ["parallel", "parallel"]} ins(%3, %cst_3 : tensor<3x10xf32>, tensor<10xf32>) outs(%1 : tensor<3x10xf32>) {
    ^bb0(%in: f32, %in_5: f32, %out: f32):
      %11 = arith.addf %in, %in_5 : f32
      linalg.yield %11 : f32
    } -> tensor<3x10xf32>
    %5 = tensor.empty() : tensor<10x2xf32>
    %transposed_4 = linalg.transpose ins(%cst_1 : tensor<2x10xf32>) outs(%5 : tensor<10x2xf32>) permutation = [1, 0] 
    %6 = tensor.empty() : tensor<3x2xf32>
    %7 = linalg.fill ins(%cst : f32) outs(%6 : tensor<3x2xf32>) -> tensor<3x2xf32>
    %8 = linalg.matmul ins(%4, %transposed_4 : tensor<3x10xf32>, tensor<10x2xf32>) outs(%7 : tensor<3x2xf32>) -> tensor<3x2xf32>
    %9 = linalg.generic {indexing_maps = [#map, #map1, #map], iterator_types = ["parallel", "parallel"]} ins(%8, %cst_0 : tensor<3x2xf32>, tensor<2xf32>) outs(%6 : tensor<3x2xf32>) {
    ^bb0(%in: f32, %in_5: f32, %out: f32):
      %11 = arith.addf %in, %in_5 : f32
      linalg.yield %11 : f32
    } -> tensor<3x2xf32>
    %10 = linalg.generic {indexing_maps = [#map, #map], iterator_types = ["parallel", "parallel"]} ins(%9 : tensor<3x2xf32>) outs(%6 : tensor<3x2xf32>) {
    ^bb0(%in: f32, %out: f32):
      %11 = arith.cmpf ugt, %in, %cst : f32
      %12 = arith.select %11, %in, %cst : f32
      linalg.yield %12 : f32
    } -> tensor<3x2xf32>
    return %10 : tensor<3x2xf32>
  }
}

{-#
  dialect_resources: {
    builtin: {
      torch_tensor_2_torch.float32: "0x04000000FDE1E5BD3980013E",
      torch_tensor_2_10_torch.float32: "…",
      torch_tensor_10_5_torch.float32: "…",
      torch_tensor_10_torch.float32: "…"
    }
  }
#-}
