module {
  func.func @main(%arg0: !torch.vtensor<[3,5],f32>) -> !torch.vtensor<[3,2],f32> {
    %0 = torch.vtensor.literal(dense_resource<torch_tensor_2_torch.float32> : tensor<2xf32>) : !torch.vtensor<[2],f32>
    %1 = torch.vtensor.literal(dense_resource<torch_tensor_2_10_torch.float32> : tensor<2x10xf32>) : !torch.vtensor<[2,10],f32>
    %2 = torch.vtensor.literal(dense_resource<torch_tensor_10_5_torch.float32> : tensor<10x5xf32>) : !torch.vtensor<[10,5],f32>
    %3 = torch.vtensor.literal(dense_resource<torch_tensor_10_torch.float32> : tensor<10xf32>) : !torch.vtensor<[10],f32>
    %int0 = torch.constant.int 0
    %int1 = torch.constant.int 1
    %4 = torch.aten.transpose.int %2, %int0, %int1 : !torch.vtensor<[10,5],f32>, !torch.int, !torch.int -> !torch.vtensor<[5,10],f32>
    %5 = torch.aten.mm %arg0, %4 : !torch.vtensor<[3,5],f32>, !torch.vtensor<[5,10],f32> -> !torch.vtensor<[3,10],f32>
    %6 = torch.aten.add.Tensor %5, %3, %int1 : !torch.vtensor<[3,10],f32>, !torch.vtensor<[10],f32>, !torch.int -> !torch.vtensor<[3,10],f32>
    %7 = torch.aten.transpose.int %1, %int0, %int1 : !torch.vtensor<[2,10],f32>, !torch.int, !torch.int -> !torch.vtensor<[10,2],f32>
    %8 = torch.aten.mm %6, %7 : !torch.vtensor<[3,10],f32>, !torch.vtensor<[10,2],f32> -> !torch.vtensor<[3,2],f32>
    %9 = torch.aten.add.Tensor %8, %0, %int1 : !torch.vtensor<[3,2],f32>, !torch.vtensor<[2],f32>, !torch.int -> !torch.vtensor<[3,2],f32>
    %10 = torch.aten.relu %9 : !torch.vtensor<[3,2],f32> -> !torch.vtensor<[3,2],f32>
    return %10 : !torch.vtensor<[3,2],f32>
  }
}

{-#
  dialect_resources: {
    builtin: {
      torch_tensor_2_torch.float32: "0x04000000FDE1E5BD3980013E",
      torch_tensor_2_10_torch.float32: "…",
      torch_tensor_10_5_torch.float32: "…",
      torch_tensor_10_torch.float32: "…"
    }
  }
#-}
